dnn_model.npz (npz, 876526 bytes, 6 tensors)

W1 f8 [784, 128]
0.10109847470148163 -0.045847963151235835 -0.002687899651078678 0.0636346476554165 0.057495040566413295 0.03148950581254035 0.024743359648870505 -0.010737188366985301
0.027858332260681292 -0.00212141494851968 -0.015190183567612727 0.0013601164774834438 0.0007236827953115441 0.02555313979710799 -0.03947401293781205 -0.050677801137350355
0.04924867607889674 0.024067037010514138 -0.02902158189022219 -0.052662748178681586 -0.03194220128575262 0.03206978884804038 0.04479781335061608 0.002504691709148384
0.006814971509518028 -0.01248817926739501 -0.03395175230263393 -0.00884290441818964 0.012059442868241056 -0.058584377461674955 -0.0338230087663158 0.021425351189716252
0.01651471664736099 0.03589230188146131 0.04139051589275613 0.023731264920706794 0.0029596306551855052 -0.02133958016883126 0.008659693444626443 -0.06554478217890453
0.07322723808459669 0.03378350638760163 0.020955227812892642 0.01960708992808915 0.04281787182110061 0.010625495984630433 -0.03554448551353491 0.01182120250180549
0.05269542678602538 0.06989760559545924 0.12468613499482452 0.06171752531656276 0.0043549115303953235 0.0410142431406243 0.07888923469616091 -0.026150311914543378
0.026687724194956262 -0.0352038318261146 -0.06472898006645787 0.029453040932143567 0.09574231204370472 0.020158128655041466 0.0008295283095513266 -0.11518646159734991
-0.024076589188811386 0.02380815016385604 0.08229174585889922 0.03859569431862012 -0.005571987481275077 0.01334285479916418 -0.06006183659011566 -0.060284780748234526
0.04686512286695495 -0.015001249861090703 -0.04592813919706828 0.013460253618172073 -0.08230976283241208 -0.03966228589793266 -0.039991872923485355 -0.008590901563949385
-0.0948354623614543 0.04448000621992558 0.044706338958010745 0.07645248037450521 -0.020619747966193317 0.08754528341181918 -0.09782014882942527 -0.0033095986527291836
-0.004408797899637417 -0.010840425469096669 0.038038555864166164 -0.019616241550981378 0.0203836280263028 -0.07410335402927448 0.05026287191329554 0.0008730142249912727
0.0563419113087509 0.06175848115016276 0.004072211522597588 -0.0025197203150013627 -0.047041751527530186 -0.050635171112429316 0.1274758031071124 -0.030963498608361062
-0.03556053469166719 -0.004806355403817573 -0.08701061521671326 -0.08284271871223498 -0.007339803786336124 0.014198563678445674 -0.07871018253569043 0.08666313823265469
-0.022025602602165652 0.031007260407365015 0.01272597011218859 0.04830820757570187 0.04380852300877074 -0.030436979753265845 0.0721329610699895 -0.03500421404250646
-0.09052082670562019 -0.01732777840849978 -0.01202393256821606 -0.04882429215629293 -0.08829035977670753 -0.014434363982186123 0.09183597698644658 -0.07483677685091368
0.04512513638980706 0.024960761204163417 0.02261176883859243 0.040265280542235625 0.034166375094216585 -0.0180699104874695 0.03647990539571709 -0.0764411975759473
0.008065633317112962 0.009201835651781577 -0.09811547803512725 0.0654483063628115 0.04169142845917768 0.001369359919214065 0.03310159971333925 0.0024844718860983547
0.027782683998411415 -0.00017041510553262668 0.042243953837734584 -0.04321024956446862 -0.06351126560695902 -0.04291809609417012 -0.01876715256808351 0.07752404695445182
-0.06855936924838249 -0.07398884893874015 0.03510639402680483 -0.013819503697390764 0.06413151759137956 -0.01586653563292119 -0.029973644552652702 0.0735208249517597
0.01847021773670241 -0.04151302700023877 0.02041212616543295 -0.015559777523780504 -0.025321659646894083 -0.006642384970365664 -0.1329072470997205 -0.04151310741952359
-0.06179637695990994 0.016593608353762654 -0.028766611414925876 -0.027029472694937773 0.020566126192558078 -0.03222607749238052 -0.03939270843688834 -0.03766115000024314
0.008099845489089933 -0.06230953028548516 -0.021478828038590456 -0.07144645493874147 0.05121376213075873 0.014873205208355333 0.042692282886672234 -0.005186355751867187
0.03339713371736348 0.010882433797053443 -0.030517028879671886 0.03320157555976322 -0.09329776526328408 -0.033600835161778135 -0.009644964662047737 -0.05687693999473654
-0.039002508966037464 -0.05526169844704235 -0.02925742325427736 -0.02257815165063214 -0.08383529918185892 -0.01665800013318765 -0.018542012698594273 -0.04936330269162001
0.024727432887992715 -0.04170335366204083 -0.00756674318896504 -0.06376509019383818 0.09211889482751545 0.038561689437399065 0.06640171888698868 -0.02997321543956742
0.09983297031839933 0.01184556124007376 0.052465956463939256 0.05662246760201112 -0.03129326624885243 0.02877864615822143 0.03991868011236486 0.028108118339255837
0.023775160322849223 -0.0682904382788324 -0.05230430741203211 0.016898962710525378 -0.040434409357820666 0.03477841459406532 -0.06055349624251745 -0.06529625684679519
0.005643819360360564 0.10634192242399744 0.03406681693793829 -0.025690244351877885 0.022516966133693195 -0.07329282105389781 0.07558527393709168 -0.09138197904518917
0.013093543899266558 -0.03125217174232554 0.03299531737312428 -0.03769853149482848 0.03496887778960786 -0.001102892790640726 0.07235885476257448 -0.02107258699586377
-0.043425525096526744 0.042089643304625925 -0.08810225457283585 -0.14334805929063843 -0.010333204929206821 -0.01219320386242693 0.011270231870369683 -0.023096924423408365
-0.019440953348167155 0.07452908158583336 0.023269797582125853 -0.006565955628370923 0.05049033896335985 -0.018793116458768477 -0.05056065667564718 0.014561180628822341
00000000: 63b2 84f2 96e1 b93f 3e42 a55c 6279 a7bf
00000010: 71fe 1423 ef04 66bf 298f 923a 5c4a b03f
00000020: cf72 d46d fd6f ad3f b99d 437b 641f a03f
00000030: d8b4 f0c1 5256 993f eaf8 1807 61fd 85bf
00000040: ef43 ec07 e586 9c3f dd86 67fa ed60 61bf
00000050: 0e23 25ed 071c 8fbf a3db 87f2 bd48 563f
00000060: 121c 22f8 b0b6 473f 6f6c f42e 9a2a 9a3f
00000070: 9035 3815 f035 a4bf e545 09d5 70f2 a9bf
00000080: 34a4 425a 1f37 a93f dab3 7c83 07a5 983f
00000090: bf02 6364 d5b7 9dbf 1533 4a9a 9cf6 aabf
000000a0: 9ce4 c46b ba5a a0bf a57b 958c 736b a03f
000000b0: f3e1 8b2e bdef a63f 447d 461f b884 643f
000000c0: f0d5 1afc 03ea 7b3f 0f04 520c 6793 89bf
000000d0: b13b 90c3 1f62 a1bf e3e3 388a 3a1c 82bf
000000e0: 1a0d d105 9fb2 883f 7a42 8282 c5fe adbf
000000f0: 1bde 01d9 3f51 a1bf 081c a9fa 86f0 953f
00000100: 12cc 9cdf 3be9 903f 50a0 84cd 7960 a23f
00000110: 2377 3f40 2331 a53f 6999 e83a 024d 983f
00000120: 7a8f e99b cb3e 683f d2f3 bdfb 0ada 95bf
00000130: 30bd 1a61 2cbc 813f 2cc0 e1f7 8ac7 b0bf
00000140: 84ef bf30 05bf b23f ef6c 285e 124c a13f
00000150: cae1 8b88 4975 953f 8622 0b88 e113 943f
00000160: 4cd8 4f5e 39ec a53f 29e8 0fee d1c2 853f
00000170: fae4 aa05 e332 a2bf 313d 28f1 b635 883f
00000180: 25b5 631d e5fa aa3f 82e8 193a cfe4 b13f
00000190: f141 1138 6eeb bf3f a63d a681 7099 af3f
000001a0: dbaf 99a9 74d6 713f d118 eba1 d1ff a43f
000001b0: 5ec7 06bb 1532 b43f f309 d0b9 25c7 9abf
000001c0: e6ee 7cda 0654 9b3f ea2a c694 3c06 a2bf
000001d0: bf26 7d14 1492 b0bf 6f04 491e f028 9e3f
000001e0: 2536 1273 9182 b83f d1b0 491d 55a4 943f
000001f0: 0ee5 f57a 962e 4b3f f0a8 8025 dc7c bdbf
00000200: de22 a98c 88a7 98bf b8fc 53e9 2961 983f
00000210: e1d8 3165 1211 b53f 65d2 ba99 d0c2 a33f
00000220: 81bf 1700 a7d2 76bf 3843 fba7 7f53 8b3f
00000230: 10d4 c8cf 6cc0 aebf a238 8593 a5dd aebf
00000240: 5abc 1294 b4fe a73f e689 6bac f9b8 8ebf
00000250: 1f95 a29f e483 a7bf 0ff4 afa8 0c91 8b3f
00000260: cfb8 81ab 4012 b5bf f3e7 a179 9d4e a4bf
00000270: 1cd3 9f94 d079 a4bf 8821 154a 1b98 81bf
00000280: a5ee 5709 2347 b8bf c6b6 1458 15c6 a63f
00000290: 8941 7fcf bfe3 a63f bd15 e8c6 6392 b33f
000002a0: 718f aadc 571d 95bf 953d 2c21 5e69 b63f
000002b0: 62bb 1cc4 bd0a b9bf 1852 3e3f bb1c 6bbf
000002c0: e6a6 b2ac f50e 72bf b27c ea46 8133 86bf
000002d0: 51ea d822 ca79 a33f 5844 baaf 4716 94bf
000002e0: 06b9 fc1e 72df 943f 8863 14fa 6ff8 b2bf
000002f0: 182b 241e 0ebc a93f b4be cbc5 5f9b 4c3f
00000300: 0331 eed4 d8d8 ac3f 1ac7 94c1 ce9e af3f
00000310: 56c0 fdf4 05ae 703f 03cc 228b 3ca4 64bf
00000320: 0df0 b640 db15 a8bf 3f16 e967 daec a9bf
00000330: 512d b08a 2051 c03f 7013 9237 e5b4 9fbf
00000340: fed6 0e8b fd34 a2bf fe8a 5b34 d4af 73bf
00000350: 37b8 c2e2 5346 b6bf c4ad 942f 2e35 b5bf
00000360: ecbb 8a93 5710 7ebf 195a 31f5 2214 8d3f
00000370: f25c dabb 5926 b4bf d75c 7a30 8e2f b63f
00000380: f76a 672b e18d 96bf 4181 8d05 5ec0 9f3f
00000390: 4da6 88cb 1210 8a3f 7000 5577 dabb a83f
000003a0: f7ab 371b 126e a63f d964 8422 df2a 9fbf
000003b0: f35d c244 4e77 b23f a6ca 1185 12ec a1bf
000003c0: c5b9 4e76 5f2c b7bf 89af 4e86 5fbe 91bf
000003d0: e9c8 32e9 00a0 88bf a28d 1f64 7fff a8bf
000003e0: 3104 cb6f 329a b6bf c4b7 ef89 c38f 8dbf
000003f0: 64c4 c005 9082 b73f 7ddb 1cc5 8028 b3bf
00000400: 3c24 0b52 a41a a73f 9378 3854 508f 993f
00000410: 2a76 aa1e 8a27 973f 9bb3 2f9e a69d a43f
00000420: 4d18 4e4f 417e a13f 7760 572a eb80 92bf
00000430: ce84 4581 7ead a23f 6ce0 a77b a691 b3bf
00000440: 7f58 8cfa b684 803f 0724 8079 69d8 823f
00000450: 536c 6491 181e b9bf 3f28 685f 38c1 b03f
00000460: 09ea 8233 9458 a53f 3952 7204 836f 563f
00000470: 3f9b 6d60 b1f2 a03f 0cba f4af 505a 643f
00000480: 7951 ac5c 1073 9c3f 52e1 299c 2e56 26bf
00000490: bda4 5fe0 ffa0 a53f e078 7661 a71f a6bf
000004a0: 149f b538 4642 b0bf 7618 4356 5cf9 a5bf
000004b0: 896a 134a b237 93bf 21ac 52ae 9dd8 b33f
000004c0: ba95 c158 1b8d b1bf 21e8 75e6 eef0 b2bf
000004d0: 0184 731c 77f9 a13f 1eff 6a63 664d 8cbf
000004e0: 96a4 b252 ec6a b03f 24ad 932e 513f 90bf
000004f0: 9add 613c 69b1 9ebf c724 bec2 42d2 b23f
00000500: 3a3c 8454 dbe9 923f 15e2 a50a 3241 a5bf
00000510: d918 4a99 eae6 943f d908 c8fc cddd 8fbf
00000520: ae62 41d0 ebed 99bf 304e 71a3 0b35 7bbf
00000530: 9deb d8cb 1a03 c1bf bac2 71bd 3441 a5bf
00000540: 24b3 1b54 c6a3 afbf 5ce4 ce34 eafd 903f
00000550: 02b3 f99c fe74 9dbf b0f3 0235 9dad 9bbf
00000560: ca1a 9c5d 490f 953f 34f7 d0b9 ef7f a0bf
00000570: 9ee5 dff4 472b a4bf ec5d 297f 5248 a3bf
00000580: 028c d3db a696 803f b34d 9ce5 08e7 afbf
00000590: bcb9 edbf 8bfe 95bf 3085 609b 504a b2bf
000005a0: c8d8 e9b2 b038 aa3f 0015 a7cf d775 8e3f
000005b0: 9c65 944d c3db a53f e45f 6fc5 493e 75bf
000005c0: 1943 31da 6d19 a13f fde6 128a 8749 863f
000005d0: 3e80 0924 db3f 9fbf e0e2 6802 ccff a03f
000005e0: 237f 98c2 5ce2 b7bf 2fb8 46f0 2034 a1bf
000005f0: e547 5b3e bdc0 83bf b10f 596a f91e adbf
00000600: 1831 f108 23f8 a3bf 1559 1ae7 424b acbf
00000610: 1a5e 2b70 a8f5 9dbf 5d3d c61b ba1e 97bf
00000620: 9e88 3cec 3a76 b5bf 65bc 2777 cb0e 91bf
00000630: 0be6 9168 adfc 92bf 9cb9 5d95 2546 a9bf
00000640: 3c98 45ee 2552 993f 6356 3958 245a a5bf
00000650: 3197 8a28 4efe 7ebf 7b4f 02b1 e852 b0bf
00000660: 48ba a098 1a95 b73f e736 0696 5bbe a33f
00000670: aa8e 04fb b3ff b03f dc8e 4670 4cb1 9ebf
00000680: 107f 944e a78e b93f 4af3 0751 7c42 883f
00000690: 30fb 545e d1dc aa3f e88f 23bd 9efd ac3f
000006a0: 3168 3fc6 ab05 a0bf 5976 4a40 2678 9d3f
000006b0: 0d08 2aa3 3870 a43f 99a9 13e4 5fc8 9c3f
000006c0: 64d8 2c00 8458 983f d77e 096f 7b7b b1bf
000006d0: 7699 8c53 a1c7 aabf 804d b630 f64d 913f
000006e0: 685b a6a3 d1b3 a4bf 2694 93f2 79ce a13f
000006f0: ca46 0a2c de00 afbf b04c b567 41b7 b0bf
00000700: 3a8a 3c39 f91d 773f 113d 0167 3939 bb3f
00000710: b928 41b1 3471 a13f 8f2f 451d 8b4e 9abf
00000720: b0ef 9804 b00e 973f 2a44 757d 51c3 b2bf
00000730: 6f77 9e77 8e59 b33f 475e 7133 cf64 b7bf
00000740: 0d50 b0b6 c9d0 8a3f 01e1 1fdf 4800 a0bf
00000750: b8d1 1322 c3e4 a03f 8e49 c1cf 384d a3bf
00000760: 4ce7 f7d4 70e7 a13f b8fc df1d de11 52bf
00000770: 6401 c822 1c86 b23f 1c18 f55f 0d94 95bf
00000780: bfd1 33d4 de3b a6bf cdc2 fc12 c68c a53f
00000790: 421d 188e de8d b6bf 1897 4cad 3a59 c2bf
000007a0: 68d7 de49 9329 85bf 35a7 941e c0f8 88bf
000007b0: ff9f 69ea d814 873f 9b9a 255c b8a6 97bf
000007c0: 3371 554b 54e8 93bf 0717 0380 5614 b33f
000007d0: 372a 66ae 09d4 973f 80ae 0d4b e7e4 7abf
000007e0: af21 39a5 ded9 a93f 0342 52b2 803e 93bf
000007f0: 87ba c51d 16e3 a9bf 644b bc94 40d2 8d3f

b1 f8 [128]
0.056308233469168884 -0.03661448795502761 -0.014696202445814412 0.051869273928338615 0.03831065494724198 0.010567832075061455 0.10688961545421558 -0.018298044554781633
0.008811593136830243 0.004136113879060086 0.06115940985224447 0.003530449357872865 0.0833679881719553 -0.02598377219582307 0.02378072986006272 -0.0015601996681680584
-0.013078462172184332 0.03826414202073832 -0.06546900584145605 -0.0012561509620884943 0.013554389442920478 -0.0014754947784378903 0.057967048554113366 -0.12381499220272627
0.02879368214270655 0.0686826813081078 0.013539894409296887 -0.031225102526098673 0.05485159092946432 -0.02587312873219721 0.0132664864625728 -0.10076942559872694
0.07767482926208413 0.023756793759144922 -0.02958293862708691 0.07518801309886859 -0.06738155324709709 -0.002361792057650902 0.06888254087569286 0.024736220250072473
0.08229994400296968 0.03018493769808663 0.016369060304058804 0.036707571741576996 0.02557971093762147 0.03414722127216243 -0.038076951162423746 -0.030327425565757217
0.05374797159002332 -0.07861408630306675 -0.01687319643684827 -0.05304156744297391 0.017558539053375104 0.1130153235011344 -0.03612048129543445 0.005485655149827768
0.030944679479033597 -0.06708661225710508 0.08426427461158584 0.054624662154744805 0.09381982889036052 -0.09485058701366313 0.001727789295598496 -0.006504049614205791
-0.008460288232331331 0.07535300789440744 -0.00818828981868812 -0.03541598127499336 0.027396764430199002 -0.009797026564779383 0.12628226496989384 0.0680833415425711
-0.014329590336134899 0.039084860966589176 0.014507141859498758 0.07406586217196527 -0.0033845767512700933 -0.07586554124317872 0.016558771303499222 -0.048443160669703576
0.00908998424488687 0.014128840749790447 -0.04663681119246762 0.09586677452411732 -0.015037915210772983 -0.05067867630307183 -0.0041037407784737965 -0.041567220399975804
-0.007917372923148583 0.038115793785789415 -0.021429951793420006 -0.06329094311971292 0.031545359328158704 0.02559135217764038 -0.030142261840726506 0.07068791082303008
0.10510492146493215 -0.025487680995454738 0.11456804123719816 0.02281909812898709 -0.10168404334385615 0.014723017705343152 -0.03197860268580741 0.03745134192924559
0.11202297191291201 0.024870344309819162 0.065870297583417 0.09440843363702268 0.07349238168583345 -0.014649932418853075 -0.015066760629411983 0.0015040811189253782
0.06093097668228179 0.1116500862308312 0.07754109708551722 0.03347025113032138 -0.044655950573858405 0.04477376299670708 -0.007019226323326169 0.15158207433320703
0.013436689976809383 0.017543759922665613 0.0504511932597447 -0.030925718411081944 -0.05533979659097695 0.020126201001997968 -0.06580672677473019 0.06479643335568191
00000000: fcc0 7dca 6ed4 ac3f fb3b a758 22bf a2bf
00000010: 9495 0ae7 0a19 8ebf 7f03 6106 9c8e aa3f
00000020: d469 2c44 749d a33f 5f50 3769 96a4 853f
00000030: 4e6a a82a 1e5d bb3f d32e c6fb b8bc 92bf
00000040: 8d68 c902 d00b 823f f150 7d9d 07f1 703f
00000050: f4eb 5042 4950 af3f 492d 0891 e3eb 6c3f
00000060: 5d5b bbbe 9a57 b53f 2829 3b6f 7d9b 9abf
00000070: 398e 18c4 f959 983f f564 33a3 f38f 59bf
00000080: 3ef6 7d7a e1c8 8abf 1b59 2d8d 5b97 a33f
00000090: a59d fda6 93c2 b0bf 55bb 43d3 ad94 54bf
000000a0: a029 ff5a 67c2 8b3f fb5f 6774 ac2c 58bf
000000b0: 0d35 9263 dbad ad3f 6ee4 43de 56b2 bfbf
000000c0: 6e91 894c 177c 9d3f 0d19 052e 3095 b13f
000000d0: a90c 6fdd cdba 8b3f e1c5 a728 79f9 9fbf
000000e0: ccea 59fa 8115 ac3f 0ffc ff46 7c7e 9abf
000000f0: 4ca7 eaab 752b 8b3f d91b 626b 06cc b9bf
00000100: 502d 6763 7fe2 b33f b36c 0371 b353 983f
00000110: 3710 b167 fd4a 9ebf 8994 4f89 853f b33f
00000120: 7bca 8cdf ea3f b1bf 66d6 b874 0959 63bf
00000130: 7594 5344 49a2 b13f 3abb 00a4 7354 993f
00000140: 2f94 f4ef 9b11 b53f 25f6 fae0 cce8 9e3f
00000150: 1a51 b00a 0dc3 903f 3d92 4ab8 55cb a23f
00000160: 4341 ac57 9131 9a3f 13f7 399d be7b a13f
00000170: 05b0 f277 d27e a3bf aa3e e813 270e 9fbf
00000180: a135 69a8 da84 ab3f 3735 ad81 0d20 b4bf
00000190: c340 800b 3547 91bf 8b07 feaa 4328 abbf
000001a0: 9bc7 ff9b ddfa 913f 0f5d 627e 92ee bc3f
000001b0: 3264 c23b 627e a2bf 6147 7357 2078 763f
000001c0: c9fe 6349 f6af 9f3f 76c9 a495 962c b1bf
000001d0: 728c adef 5792 b53f 7ef4 0483 c3f7 ab3f
000001e0: f5e7 cc88 9304 b83f e1e6 3ac9 2048 b8bf
000001f0: 79e0 36a1 df4e 5c3f 6b38 2786 fda3 7abf
00000200: 3047 2eaa a053 81bf 36cc 8fb0 554a b33f
00000210: b9fa d9a7 05c5 80bf 92e7 a922 0b22 a2bf
00000220: 5fc6 f9bc e50d 9c3f a4d7 8ca5 7610 84bf
00000230: e124 0e6b 042a c03f d7e6 53ed e86d b13f
00000240: 7fc6 de0e d558 8dbf d58b 3d4f ee02 a43f
00000250: c484 c29e ebb5 8d3f 9554 c7f7 faf5 b23f
00000260: ace5 a3ce f8b9 6bbf 0b65 8892 ec6b b3bf
00000270: 1786 d754 c8f4 903f c31e 95bd 8acd a8bf
00000280: 186e 6c08 c59d 823f ab1e 9be7 94ef 8c3f
00000290: 2b06 b9b5 c7e0 a7bf a2a5 5a95 b98a b83f
000002a0: 2909 3ed0 32cc 8ebf 090c a732 8ef2 a9bf
000002b0: b3f7 f486 15cf 70bf ca33 6878 4c48 a5bf
000002c0: 9b86 33ce fb36 80bf 7cc6 8acf e983 a33f
000002d0: 822d 6eb8 bbf1 95bf a608 d5d2 d533 b0bf
000002e0: 7e5d 4f9d b626 a03f 164e a792 9e34 9a3f
000002f0: f463 55f3 9cdd 9ebf 521d 3559 9a18 b23f
00000300: 1b2d 57f8 27e8 ba3f 0231 4e51 7119 9abf
00000310: d4d1 47c6 5454 bd3f 43bb c0c0 e35d 973f
00000320: 3fd9 af28 f707 babf 51d0 57fc 1927 8e3f
00000330: ed25 6ad9 7f5f a0bf 6f0a 8e81 d22c a33f
00000340: 6145 c498 89ad bc3f 61c1 cd8d 9c77 993f
00000350: 4808 e635 e0dc b03f 7906 f0ae 262b b83f
00000360: 9d86 d88f 65d0 b23f d44a 05a5 c800 8ebf
00000370: 22a6 4761 52db 8ebf 541d d8cd 92a4 583f
00000380: 95d5 5350 5832 af3f f2fd f49c 1995 bc3f
00000390: ad08 14bc bbd9 b33f 09be fc43 0323 a13f
000003a0: 00b2 920e 25dd a6bf 1d55 942f 96ec a63f
000003b0: e9d0 0738 31c0 7cbf 30e2 f599 0a67 c33f
000003c0: cf95 2200 b284 8b3f 9386 77cc fdf6 913f
000003d0: e486 3022 bdd4 a93f 623e b9d4 fdaa 9fbf
000003e0: 5b13 0d71 7f55 acbf 709d 627c f69b 943f
000003f0: afb1 5aab b5d8 b0bf 24fc 28c2 7f96 b03f

W2 f8 [128, 64]
-0.2740437007045933 -0.1716701163572997 0.0012663474011715035 -0.0727021566667942 -0.3479247812199732 -0.037682365906051236 0.08289829748636211 0.1413810590597941
-0.025802946304226575 -0.22395919178595466 0.07186769676856511 -0.05950093136349179 0.08264848662814801 -0.18996877451934788 -0.03347753711774108 -0.3615669013694091
-0.0011126047782702947 -0.060339116831152034 0.16299650663795343 -0.14657543685452237 0.08014603672969144 -0.04793481010552811 0.13323285257367481 0.038772991203779555
0.10382050149240851 -0.13757446826757797 0.09306368834032795 0.020991054058375917 0.29552395872152026 0.11921612817459327 -0.3189325691959215 0.1246940886116755
-0.12444348485657755 0.2231369140286465 0.09612649181001859 0.23487231367237466 0.021994843913239883 0.29521739505586986 0.11649402070600287 0.3066233012990418
0.26450944576570956 -0.051436354408267076 0.06753971481732725 0.33172091728417286 0.10540011378717469 0.2126046426628412 0.125569439301419 0.10387277824535197
-0.11383435349534103 0.048625825495397984 -0.306485324393937 -0.16048868163329588 -0.22229155814666007 -0.24188051982020722 -0.2538544896214219 0.006006604994833795
-0.18074673884928183 0.10390115712362194 0.032877538449793596 -0.13868283542453635 -0.060678076205219325 0.008723727529568934 -0.31775740974763816 0.09679704165354128
-0.2848773555901059 -0.19752324704605 0.20622939451566127 0.031106672985580792 0.05771011356069964 -0.21974630970549103 -0.0068655084093894436 0.16639462338933864
-0.08888501046068105 -0.05296652974947869 -0.14450725773742462 0.08144540532727923 -0.19759935945531995 -0.012496298746916228 0.14399868987421596 0.06767069706894728
0.3181964949891055 0.004989413785076742 -0.06106988947089329 0.02658197413617108 0.05641624604076063 -0.3750047792800397 -0.2170449105532099 -0.013004009736738736
-0.0004868441842949516 -0.23156061905682462 -0.14107498668676055 0.02751045215682537 0.6069645359086583 -0.12244688399830064 -0.0769498296253236 0.42986848023015123
-0.1615801549439864 -0.18099559627983552 0.06764346707986114 -0.15762962826861485 0.07950004260194633 0.0340517156312719 -0.17708110399945481 0.24496446041103126
-0.0750613284371491 -0.06028851680406407 0.08947742011410113 -0.16958713952026466 0.14192508726208766 -0.13720517753607778 0.0024829050193974416 -0.08188139565508473
-0.05884203103764352 0.02573375275996461 -0.10971911259417681 0.10691302475993024 0.16063826618183763 0.2787706652549288 -0.07672122728038334 0.30190496211901346
0.2646430083288147 0.2782068049918916 0.02403525241946079 -0.006526825485767519 -0.1995100464648478 0.1254130386436297 0.2237223136096964 0.016648454314808867
-0.11968863413801302 -0.06581633926307076 -0.03605492289204264 0.1441951143747776 -0.2590034768109218 0.01937256921035462 0.10938478754734808 -0.0037121954360348247
-0.07210117901793459 0.24352720382728602 -0.02380966925481815 -0.06303215333438777 -0.21148830497517285 -0.2845724148098152 0.11330800903331048 0.15054641801334556
0.04975554420590664 -0.0022738213264604265 0.147042171417089 0.034727196243202335 -0.39804580426265385 0.0641362722235994 0.07471618635635031 -0.14130758816810382
0.19443673764117345 0.03448524385991599 -0.16082042832102306 0.009967321960672177 0.22498911911415034 0.16330530305058613 -0.1673240464484248 -0.5262860108806456
-0.20665669316991597 -0.026677582493837938 0.02889027068591257 0.10497347154833019 -0.11831799002242471 -0.16299076190039175 -0.09265087504448713 0.5202840798029199
-0.023048470292937974 -0.19560335770322926 0.1414229926982025 -0.05417067309284352 0.13749753704371345 0.016587092452590775 -0.025715623687009352 0.11072747153775506
0.19810577684116118 0.31829809652876956 0.1736715178819328 0.18340163027783626 0.350061626893468 -0.46396363066618124 -0.04878399694975025 0.17004520033597842
0.19906488511546133 -0.18977766868417026 0.2455724534946133 -0.1268952909900031 0.027748717508532496 0.11583176582185416 -0.3376053225670701 -0.0699752009326566
-0.07586696002431989 0.48504144455490045 -0.1764236495161158 -0.09216454947519839 0.14645297110024308 -0.29738290594801053 -0.28368851476740176 0.08363546656174636
-0.1372711113845785 0.11393381919879252 -0.07332914447085433 -0.10185815753573953 0.09614796434715901 0.03046731227389564 0.042543664330068495 -0.09987813171710805
-0.012556995779073965 0.0008180744706839858 0.06847028906149392 -0.18834558421628517 0.10043140323534872 -0.09478376881666889 0.003691772517017316 -0.06195442163987956
-0.179261205715286 0.14770126325384333 0.12478375143478512 -0.14140062281534796 -0.04910315221875744 -0.03710309299461254 0.030307535870691286 0.03697554439676698
0.12029140185787017 -0.11994996084527212 0.01141206516645266 -0.11172057849624331 0.03893442508863116 -0.024773850752448742 -0.0856244698439426 -0.15080570818907002
0.040147454292940525 0.3015766304745508 -0.041247964484263606 0.22810013683115943 -0.045034925399000995 0.021742724650853393 -0.028254391416888635 -0.04198353169132275
-0.01109626166000632 -0.10115863648410527 0.11167633464717523 0.06523188754071423 0.1511996327521378 -0.24137092222137627 0.0527259989798261 0.06572346886359934
-0.23187454748540617 -0.1895121810020968 -0.04812844928349619 0.16990926633150547 0.04326258284068881 0.049585208394642796 -0.012579957340555423 0.09106196999587339
00000000: d8dd 0c97 ee89 d1bf 4541 ba4f 49f9 c5bf
00000010: 5116 192b 72bf 543f 5c88 3bc9 9b9c b2bf
00000020: 03b2 334d 6644 d6bf 61a0 6762 1a4b a3bf
00000030: cf16 99a4 d238 b53f b6c3 7748 c618 c23f
00000040: ee81 116a 166c 9abf 77fc 2dde b1aa ccbf
00000050: 5a84 42df eb65 b23f 6352 93f4 e776 aebf
00000060: edbc 2183 7328 b53f a730 e994 e550 c8bf
00000070: 9684 24be f723 a1bf 9fa6 2c80 e923 d7bf
00000080: eef2 b448 9a3a 52bf 242c ebca c4e4 aebf
00000090: 1da6 afcc 11dd c43f 75f2 d7e1 fbc2 c2bf
000000a0: 4775 a85e 7384 b43f 7c86 7c53 e98a a8bf
000000b0: b142 472c c60d c13f a46c 60b2 0dda a33f
000000c0: 5070 90fa fa93 ba3f b2a6 fc48 0a9c c1bf
000000d0: 8fe9 dd99 05d3 b73f eed5 c1ca ad7e 953f
000000e0: 322d 7952 dde9 d23f 3966 aabb f284 be3f
000000f0: ecd8 9426 6469 d4bf d677 97a8 f3eb bf3f
00000100: 0ac6 a839 87db bfbf 7646 241a c08f cc3f
00000110: 0c6e 9aea be9b b83f c6b6 fac4 4b10 ce3f
00000120: d7e6 26fd d085 963f e06a 3e80 d7e4 d23f
00000130: d6a0 1c59 8dd2 bd3f 1057 d156 b79f d33f
00000140: e8fe c206 b9ed d03f 0c98 04a8 dd55 aabf
00000150: 8953 5262 484a b13f 009e c85e ea3a d53f
00000160: 7de9 b579 80fb ba3f 497a 9b01 a136 cb3f
00000170: 869c 96cd a812 c03f 9529 8209 6897 ba3f
00000180: b37d 6c89 3f24 bdbf 24cb 7cf4 7be5 a83f
00000190: 5175 3e9f 749d d3bf ec1f 7fa3 e48a c4bf
000001a0: 4a59 35be 0c74 ccbf 1969 15dd f0f5 cebf
000001b0: 4c79 b7e6 263f d0bf 3d6f 34c0 619a 783f
000001c0: 50b0 1b8a b522 c7bf b2cd dc27 4499 ba3f
000001d0: b366 d420 53d5 a03f 8e1c 55f1 5bc0 c1bf
000001e0: 0a6f c561 3211 afbf 327c 82e3 bedd 813f
000001f0: b560 bb2c 2356 d4bf ee62 40e0 b0c7 b83f
00000200: 9559 683b 6e3b d2bf 0a9a 2117 7148 c9bf
00000210: 3996 758c b965 ca3f 6249 a47c 6dda 9f3f
00000220: 7d86 c814 2e8c ad3f d806 cda6 a520 ccbf
00000230: 4e7b 6be1 011f 7cbf 3cfe d744 6b4c c53f
00000240: 9d82 0805 2bc1 b6bf 91fd 1cd2 6d1e abbf
00000250: 2e29 02bd 367f c2bf dc45 4a28 9bd9 b43f
00000260: 5d1b 4991 ef4a c9bf 292d 83d3 a897 89bf
00000270: f59a d68f 8c6e c23f cb03 cfe6 dd52 b13f
00000280: b685 ebd4 545d d43f d5a4 8790 c76f 743f
00000290: 0d7c 1874 8d44 afbf 0fd8 4f16 4e38 9b3f
000002a0: 7993 6a17 97e2 ac3f 787e b60b 1400 d8bf
000002b0: 966d 4bac 20c8 cbbf 700d 4aa4 d8a1 8abf
000002c0: cb23 8cd9 e3e7 3fbf 66fe f142 c7a3 cdbf
000002d0: 0438 0dc3 be0e c2bf 2638 3f31 b32b 9c3f
000002e0: 77e7 f1e3 406c e33f 1212 45d2 ad58 bfbf
000002f0: e86c ace9 fbb2 b3bf badc 0a16 f782 db3f
00000300: 6161 9594 a8ae c4bf 00f7 5e1b dd2a c7bf
00000310: f163 e50e 1551 b13f ddac 2529 352d c4bf
00000320: 0187 0163 1d5a b43f 479c 04fa 396f a13f
00000330: e667 35f7 97aa c6bf b8e6 12d5 fe5a cf3f
00000340: 72f5 d41e 3837 b3bf dbdf feef 22de aebf
00000350: 33da 1e01 fee7 b63f a2e6 0709 08b5 c5bf
00000360: f9e4 22ec 992a c23f 75fe 2d73 f08f c1bf
00000370: 4eb5 6f7b 0757 643f fc4a 7ddc 2df6 b4bf
00000380: d1b0 dfed 8a20 aebf 4693 07ea f259 9a3f
00000390: c38f 5640 8d16 bcbf 273f dce8 a65e bb3f
000003a0: 745a de71 cb8f c43f 4aa9 96ea 60d7 d13f
000003b0: d906 149a 00a4 b3bf 3348 b330 6952 d33f
000003c0: c4c9 783a e9ef d03f adbf 3dea 23ce d13f
000003d0: dbe9 5e7c b29c 983f db0e 2160 dfbb 7abf
000003e0: 771d 6592 8b89 c9bf 23b2 bbd1 880d c03f
000003f0: b067 2bca eea2 cc3f fc84 3edb 4a0c 913f
00000400: 715f 5311 eaa3 bebf 7a65 adf0 56d9 b0bf
00000410: 66bc 5c75 ca75 a2bf 74c7 3d4a fc74 c23f
00000420: 4901 9d51 8393 d0bf 8db8 ca1c 67d6 933f
00000430: db1d 3235 a400 bc3f c9e9 cfbf 0969 6ebf
00000440: fa93 e20d 3975 b2bf 41f0 0f40 e62b cf3f
00000450: 72b1 1cdb 8f61 98bf 4ceb 2a0d e022 b0bf
00000460: 726b ad7c 0c12 cbbf f8eb bc37 6f36 d2bf
00000470: de45 2cf1 c001 bd3f 90d9 f2e2 1a45 c33f
00000480: 2c6f 5106 8f79 a93f 87b4 7d87 8ca0 62bf
00000490: b542 af22 47d2 c23f 84eb 4a58 c3c7 a13f
000004a0: 358f e71b 9579 d9bf ef0d b017 3c6b b03f
000004b0: bde2 e198 9920 b33f ffe7 edf6 5d16 c2bf
000004c0: 9da6 a792 4de3 c83f 4b56 25c5 0ca8 a13f
000004d0: d870 1588 c395 c4bf 7d5e cc4e bf69 843f
000004e0: 3d8b 4686 71cc cc3f 2dcd ee2b 30e7 c43f
000004f0: 8c49 aad5 df6a c5bf b963 a2c2 55d7 e0bf
00000500: a407 55fd b973 cabf 8db6 6341 5e51 9bbf
00000510: 2707 133f 6995 9d3f f366 3f9b 8adf ba3f
00000520: a0bd ac79 164a bebf 6cc6 f49b e1dc c4bf
00000530: ea08 43be f7b7 b7bf 7f41 6ccc 2aa6 e03f
00000540: da23 86a8 049a 97bf 495d 29e4 8709 c9bf
00000550: e946 450c 261a c23f 6111 ac2a 42bc abbf
00000560: e70f 71f0 8499 c13f f279 7aee 34fc 903f
00000570: ce83 ed4a 3255 9abf 6eff 05b5 a258 bc3f
00000580: 213a 57b4 875b c93f 6316 befa fe5e d43f
00000590: a858 c648 de3a c63f 27c7 0962 b479 c73f
000005a0: 50e3 c5e1 6867 d63f b1a8 0f83 94b1 ddbf
000005b0: 5447 ef4e 37fa a8bf 2e74 2487 0ac4 c53f
000005c0: f22b ad49 f57a c93f b53b 4178 a24a c8bf
000005d0: 7767 470c eb6e cf3f 85c3 68da 1a3e c0bf
000005e0: 0703 d2e8 286a 9c3f 8ff4 0a8e 26a7 bd3f
000005f0: e463 d85a 539b d5bf fe6a 890f e5e9 b1bf
00000600: b6c1 2660 046c b3bf 6358 6445 eb0a df3f
00000610: d1d2 74d6 0c95 c6bf 92b7 d88d 1898 b7bf
00000620: a687 a390 f8be c23f dee9 db4f 5208 d3bf
00000630: c050 4bdf f327 d2bf 681c ab49 2269 b53f
00000640: 0d8a 0a8b 1992 c1bf 3700 5e4b c42a bd3f
00000650: 0d92 58e5 b2c5 b2bf 9d62 724f 6013 babf
00000660: 91b1 722a 279d b83f 3cec 40b7 d232 9f3f
00000670: fe37 e67d 48c8 a53f d280 4ffd 9c91 b9bf
00000680: 3335 a871 7bb7 89bf b7ad 738c 81ce 4a3f
00000690: e34b 44d4 4487 b13f e208 4746 b51b c8bf
000006a0: 4820 6358 dfb5 b93f 145c 42c3 bf43 b8bf
000006b0: a50f 3247 353e 6e3f 865e 926d 7db8 afbf
000006c0: 1f8d fefb 07f2 c6bf 0367 a0ff dfe7 c23f
000006d0: 6e0e 7cf3 d3f1 bf3f 291f 5065 6a19 c2bf
000006e0: 18f5 d161 0c24 a9bf bd0f fc35 2dff a2bf
000006f0: ce40 8c4d f008 9f3f a02f df63 75ee a23f
00000700: 2b34 f8d4 6acb be3f 12a7 fc66 0ab5 bebf
00000710: 029e 5b75 355f 873f 1a7b ee46 b899 bcbf
00000720: 7972 e384 36ef a33f 1c6b 1cfb 505e 99bf
00000730: 0392 b739 7ceb b5bf 3c70 5cf8 994d c3bf
00000740: 1f63 6906 358e a43f 9311 4811 084d d33f
00000750: 2114 f904 741e a5bf 0694 f3a1 6232 cd3f
00000760: df73 8857 d10e a7bf a994 348d b943 963f
00000770: f369 6a1c b8ee 9cbf 516c 2b8f dd7e a5bf
00000780: fe2c 8007 a3b9 86bf 3f3d 684b 88e5 b9bf
00000790: 13f9 0bfd d196 bc3f abca a477 09b3 b03f
000007a0: dd37 eb72 825a c33f b9b5 920c 3ee5 cebf
000007b0: 3fd9 88f2 e6fe aa3f 264d 59d5 40d3 b03f
000007c0: 4dc0 1caf 10ae cdbf 697f cc65 ef41 c8bf
000007d0: 2810 5cc7 4aa4 a8bf 9330 173b 96bf c53f
000007e0: 6beb e164 8326 a63f 3636 d780 3b63 a93f
000007f0: 12ef e64a 85c3 89bf eba6 0a57 d64f b73f

b2 f8 [64]
0.017892291303238845 0.06691610668686643 0.02876532772556231 -0.027906551158100198 -0.00977661877025623 0.008517479110940666 0.03444590370475974 0.017171382202066193
0.0007342334779238148 -0.0004976128533539402 -0.013104635892519539 0.02521739784357193 0.13564817924738615 0.05530774382661783 -0.00707266312588969 0.05291343934883521
0.0037829545606795456 -0.006003965010365409 0.05459023930551763 0.004294109395869997 0.0745291049931536 0.044959907405311576 0.07324054153848407 0.15122206084496112
-0.0113960908633856 -0.0143117375246043 0.021189630764282433 -0.0038664731696464354 -0.01695581192693503 0.03276864607291851 0.026784801119472477 0.010903435751383632
0.045306670818263686 0.06391990593746434 0.006477553114432354 0.02702604005708034 0.0272825623874431 0.042852568062571206 0.08112561979536372 0.02489523798968313
-0.0018094515628370165 0.0573014738504293 -0.04181506198252494 0.019716939237461595 0.022866292654244832 0.022359449892503144 0.004408893197920247 0.01050560192209775
0.07619195555215423 0.050046013846671296 0.027652144844043616 0.029353694849173384 -0.04469924470366235 -0.03186570135220061 0.005162840982072229 0.03360032191785925
-0.013064513221346595 0.0613030955417796 0.000701860726231913 0.08247312522036561 -0.02987565454376172 -0.0033935652543404817 0.02916315667209468 -0.05182514634717593
00000000: b5dd fd57 5b52 923f 80b5 cbf9 6921 b13f
00000010: 272c 5c77 a874 9d3f efd3 45f2 8893 9cbf
00000020: add6 118f c305 84bf 2f8c ceb1 9c71 813f
00000030: 7e45 c9bb e4a2 a13f 6ba1 f0f3 5f95 913f
00000040: 1665 3d63 320f 483f 985c 3277 474e 40bf
00000050: 83c4 ac74 9ad6 8abf 060b 1dec 96d2 993f
00000060: 7492 d066 eb5c c13f 5dd8 e6ed 4b51 ac3f
00000070: db21 248d 39f8 7cbf 3354 0b67 7817 ab3f
00000080: d717 da43 6efd 6e3f 2783 da15 9d97 78bf
00000090: 6dfb fe78 40f3 ab3f 4438 bb36 b396 713f
000000a0: f2b5 8be4 5614 b33f a7be df27 fc04 a73f
000000b0: a32c a662 e4bf b23f 6ba4 e196 3e5b c33f
000000c0: dadf 7b6c d556 87bf 23d8 efe4 784f 8dbf
000000d0: 316f 960c bcb2 953f 6a53 10fa 94ac 6fbf
000000e0: 3431 d046 dd5c 91bf ef4c 6f4e 0dc7 a03f
000000f0: 461c 5a93 796d 9b3f bcd6 ba5f 8a54 863f
00000100: 4200 e99a 6f32 a73f 1997 9011 0e5d b03f
00000110: 25ae 8dec 3488 7a3f c8ff bdd8 b6ac 9b3f
00000120: 4412 d2c4 f5ef 9b3f 10b8 c194 c5f0 a53f
00000130: 8989 e30b a6c4 b43f 31a1 f723 237e 993f
00000140: ff26 4fd2 63a5 5dbf b47f 6668 9e56 ad3f
00000150: b0eb 63a7 c868 a5bf b0f7 ce64 ad30 943f
00000160: 6fe2 85ec 426a 973f 9ced 2d48 65e5 963f
00000170: f0c5 8b41 0f0f 723f 190f 7105 f683 853f
00000180: f395 50e5 5081 b33f f181 8891 a19f a93f
00000190: 74e3 1307 d850 9c3f 206b 931d e50e 9e3f
000001a0: 8cf6 50c4 d1e2 a6bf c6f6 5782 b350 a0bf
000001b0: 9e59 c292 a125 753f f467 8bb7 0f34 a13f
000001c0: b9d4 3048 91c1 8abf 11b3 fd8c 1e63 af3f
000001d0: 3c20 c96e a2ff 463f 6dd1 9e6f f51c b53f
000001e0: bd23 d93c b997 9ebf 8372 1879 d2cc 6bbf
000001f0: 407c 9e50 f2dc 9d3f 5ed3 5759 d388 aabf

W3 f8 [64, 10]
0.30054403866281565 0.25853207146756557 0.08121717968653829 0.856209763332991 -0.32756668760227414 0.2748227815536576 -0.31362575134573895 -0.35368057249156976
-0.7233921951447279 0.31280467995874306 0.1715421374136921 -0.31804401914096136 -0.6079211310131495 -0.3608351054294636 -0.03740216340393628 0.45628229120661773
0.3647889225715371 -0.04460157451074385 -0.005485060425555047 -0.300015224194249 0.13657858283017604 0.011100382405836525 0.2950610387630675 0.07083056405872727
-0.4018165210598731 0.4379631482025621 -0.08825675712536869 -0.47635137794708754 -0.18784250564922783 0.5719919661625148 0.2616913617232391 0.23144614307067565
-0.14082710274943175 0.07640501438165481 -0.1541195917668552 0.09163690781136866 -0.246355037433349 0.10145318194540456 -0.20239869218494574 0.06254624521321417
0.07627076927684959 0.04107688280622546 -0.42733349729843245 0.022460325930031187 -0.25031075072340137 0.5023511194868026 0.8807822277653746 0.05866299375437654
-0.5797232589648359 -0.11670212173297372 0.18943051595786697 -0.20865643312626417 -0.2645246568342174 0.4155068602881489 0.23951756187628384 -0.20535901314615648
-0.8923399990935934 -0.4865682318507457 -0.16861334147415652 0.6338553142595884 -0.20803065180806019 0.29824198774194116 0.4361148020338056 -0.62815128856442
0.13521742030257225 -0.5212042322288708 -0.2491364933158272 0.40096358917883024 -0.32557684334195314 -0.3165461449524519 -0.20739225816080212 -0.19322692379032871
-0.24715795035466867 -0.04247471141823183 -0.31430990313944945 0.21675418494678117 -0.1809828824645439 0.14814484799088629 -0.07683457407612172 -0.0561210354789959
0.7759353769196604 0.08601308715528366 0.22969126302869672 -0.42352801682415 0.11202802584772997 -0.40932049102199963 0.07844796521396726 0.15972822654972366
-0.47074152531712055 0.2661758550332254 0.45762084526496116 -0.11079002405711028 0.10201058222232122 0.047496195145405894 -0.18277720792803412 0.03782112499389589
0.06805949243795928 -0.308748685958554 0.27817542896266045 -0.17175692467942294 0.10264278315719688 -0.12646446337884945 -0.23296296251898643 -0.11053873416693193
0.03380207166357517 0.009124291845014707 0.3640182762477584 -0.1537567175591594 -0.37758283259855513 0.29708775653497965 -0.4076513750951978 0.14371871485435161
0.6241914487644669 0.5737317373778159 -0.5888957525574199 0.31420106748777205 -0.3237217589103531 -0.14007808765173085 -0.1574796551533794 0.2724382700181985
0.1574145874601755 -0.1734651699109835 -0.7805129905489979 -0.43053986001564426 0.2032826228353844 0.6841364095351264 0.13440749115755854 0.22210470880560132
0.6412926929718316 0.319275409437004 0.11120731353286853 0.07987468934636363 -0.06385669508452547 -0.38934071356079925 0.7608967345535903 -0.2759760557394709
0.24331799586845496 -0.2815839827312146 -0.02888734590216816 -0.04949140587485415 -0.036137509686234894 -0.24052262233322308 0.5502109884757304 0.3283816410017346
-0.5464918949517537 -0.33431753123944635 0.22206072603629007 0.20750682967010922 0.18553645401026636 -0.6013630988957527 0.1685142188404663 -0.03843373679944509
-0.4282417134274811 -0.11436998784266142 -0.5285694202818163 0.732313675088676 0.11647769832993393 -0.20885756278764325 0.18753710683498392 0.5710694159160992
0.389705605403416 -0.08189412512292032 0.29739906261346943 -0.2897947956587873 -0.1482222939155283 -0.21007548700335296 0.30480842501158006 -0.23702030024568782
0.27353295776884323 0.036050610001358306 0.1035721218460656 0.16936518186321758 0.05481852103395499 -0.23251224668648848 0.016296723156651812 0.07450378498198125
0.042609342862191896 0.19949814875010577 -0.019168550119587565 -0.1047753462283501 -0.00468612004013585 0.1948746987062928 0.5368368281610166 -0.2628538102586218
-0.22551568550489584 -0.5239603686287099 -0.2597053606752946 -0.28135098734996206 0.44110620818527246 -0.08508759854179125 0.6174295228301739 0.007018860952320762
-0.06685813802299635 -0.48691815489146567 -0.4250258891484683 0.26257683934732784 0.30969351240237175 0.16481477801419708 -0.2203321582656218 -0.44777650262196894
0.15572626490813568 -0.03847975911153203 -0.0374239057907908 -0.6928093066642441 0.1943326141596948 0.4750491344489363 -0.24561662848863144 -0.7662216900268893
0.684997860898449 0.4451911875352361 0.03400512697425395 0.06855514347486705 -0.2274351590668832 0.41279606729758994 0.30176559045721735 -0.2692586812069316
0.0043467466592807215 -0.00476794518242812 -0.09931035618497372 0.8080353159151569 0.005384869471341622 0.4223949468296735 -0.6937112217320367 -0.09548802878727354
0.5675417930494362 -0.7161148159122382 -0.007928127903284085 0.13192900322882273 0.2971007230729198 0.10488053628111929 -0.7833410829489479 0.3535326385548732
0.20568286460290908 -0.19148237692499415 0.2383050778342342 0.5294886189710997 0.2065960687235758 -0.2090744249459303 0.25009383049659595 0.42929561086931367
-0.29054030871068315 1.0311335384962295 -0.06321492734232706 0.3286267158174919 0.17727915734870336 0.044636697835025746 -0.3476229750685166 0.31790819243252877
-0.4176323232952121 -0.4255721261294514 0.3235168304505724 -0.09773105870218231 -0.41240353428990356 -0.077121396280637 0.2508750391544898 -0.2846655572898308
00000000: a221 4410 1d3c d33f abe6 fa19 ca8b d03f
00000010: 8785 a02a a6ca b43f befe 8004 1266 eb3f
00000020: 36b1 a044 daf6 d4bf 5eff bd4a b296 d13f
00000030: f7a7 4dbe 7112 d4bf 053d 05d7 b3a2 d6bf
00000040: 1381 8a63 0726 e7bf da58 9deb fd04 d43f
00000050: 91f3 09bf 17f5 c53f 6286 394d d55a d4bf
00000060: 3df6 0704 1774 e3bf 585e 4420 ec17 d7bf
00000070: 3b36 3d59 6026 a3bf df7c 9ea3 ba33 dd3f
00000080: 2dd2 18a3 b358 d73f 6d5c bf7f 04d6 a6bf
00000090: 5d3a 4fb2 8077 76bf 9ed9 0d0e 7333 d3bf
000000a0: 1a79 4b31 687b c13f b1d1 3f1b ccbb 863f
000000b0: 19ea f3b1 47e2 d23f e380 30ac f321 b23f
000000c0: 2675 3ca4 5cb7 d9bf 7086 9895 9607 dc3f
000000d0: 2d25 81ad fe97 b6bf 57fc 6b7d 8a7c debf
000000e0: d6f3 4725 390b c8bf 86c4 8718 c24d e23f
000000f0: 25cf 0f20 8dbf d03f cb0e a3f7 06a0 cd3f
00000100: bb80 595c 9f06 c2bf a005 056e 478f b33f
00000110: b0df 27d7 30ba c3bf 8609 2832 8475 b73f
00000120: 5994 7dd6 8f88 cfbf b2d8 87f2 d5f8 b93f
00000130: 6b00 d849 33e8 c9bf 70a8 addd 0703 b03f
00000140: 0e51 af2b 7b86 b33f 5179 8c78 0708 a53f
00000150: dd73 d898 6e59 dbbf 16d5 4ef5 d6ff 963f
00000160: 0e6e 0c62 1705 d0bf f7c0 a9a7 4213 e03f
00000170: 51cf e435 5e2f ec3f fd2c 526f 1309 ae3f
00000180: 1981 bfca 178d e2bf eb88 37b4 30e0 bdbf
00000190: 14a4 7357 423f c83f e14b 3006 41b5 cabf
000001a0: 67ab 85d3 f8ed d0bf 21e1 0c16 aa97 da3f
000001b0: 0dc4 89ef 82a8 ce3f d966 b342 3449 cabf
000001c0: 00a1 209d 0c8e ecbf 6e93 c414 ef23 dfbf
000001d0: 0c80 a639 1f95 c5bf e680 a4f0 8a48 e43f
000001e0: 2a64 0a97 bfa0 cabf a952 e98f 6516 d33f
000001f0: 7259 020f 4ee9 db3f d661 2abb d019 e4bf
00000200: c146 06ef cd4e c13f 98b6 7e7f b4ad e0bf
00000210: 7c0b 8461 b4e3 cfbf 123b 9a2f 63a9 d93f
00000220: 4a45 9f41 40d6 d4bf d6b8 0fc3 4a42 d4bf
00000230: 1143 1f5b d48b cabf 3d6d 31eb a8bb c8bf
00000240: eb1e dc28 dfa2 cfbf 478d e5d0 3ebf a5bf
00000250: 45be b248 a71d d4bf 3a0c cfe3 99be cb3f
00000260: 7117 a974 722a c7bf 328b 980e 69f6 c23f
00000270: 89e9 db3e 6eab b3bf 8af8 ff77 e5bb acbf
00000280: 70bd 756d 76d4 e83f 1825 5c24 f404 b63f
00000290: c94d 71f7 8566 cd3f fcc3 4c41 151b dbbf
000002a0: 905e 4063 dead bc3f e86a a192 4e32 dabf
000002b0: c91f 0875 2a15 b43f edba a37a f971 c43f
000002c0: cccb 0610 a120 debf 0490 1674 0609 d13f
000002d0: 6a60 18f1 a849 dd3f 2260 0c2a bc5c bcbf
000002e0: 53a4 7d92 5d1d ba3f cbfb aad9 6b51 a83f
000002f0: 11a7 4059 3e65 c7bf 4fb7 e45d 4a5d a33f
00000300: a811 34ce 586c b13f 68ff 37d9 89c2 d3bf
00000310: 6681 7c50 a0cd d13f 3c09 2e83 21fc c5bf
00000320: e8a0 d424 cc46 ba3f a1bf 28cf fc2f c0bf
00000330: 9162 99f8 bad1 cdbf 8f2e 3038 444c bcbf
00000340: 7e09 aa50 814e a13f f285 96b8 c1af 823f
00000350: bc58 e84f 134c d73f a77b bad4 4cae c3bf
00000360: 75ad 622f 512a d8bf 1c06 975d 7c03 d33f
00000370: ec02 0dcb f516 dabf 04b1 0ff6 5f65 c23f
00000380: 1e5c 5c58 60f9 e33f 1ee1 16a9 025c e23f
00000390: 0099 bfe7 3bd8 e2bf f99b 4ecb de1b d43f
000003a0: 0f82 e177 dbb7 d4bf 16da ac2a 14ee c1bf
000003b0: cda5 5518 4b28 c4bf f50b faec a06f d13f
000003c0: 3603 8744 2926 c43f 09a2 e14f 1b34 c6bf
000003d0: f55a 1061 f6f9 e8bf 2410 990e f78d dbbf
000003e0: 7227 763c 2a05 ca3f 7199 1e0a 72e4 e53f
000003f0: bff7 6dc1 4334 c13f d5c7 4d56 ed6d cc3f
00000400: 054a ef40 7885 e43f 77bb 7c20 026f d43f
00000410: ca1e b31e 1578 bc3f 9652 85ea aa72 b43f
00000420: 45c8 0491 e958 b0bf 0aad ef4f f5ea d8bf
00000430: c14e d11b 4459 e83f 9253 7879 97a9 d1bf
00000440: 6d42 6449 0b25 cf3f 991c 3ad3 7805 d2bf
00000450: ca15 acf7 a494 9dbf 64c4 5403 f056 a9bf
00000460: 25c4 859c 9d80 a2bf f046 6ffe 71c9 cebf
00000470: 27e6 2c13 549b e13f 9064 2d6e 3404 d53f
00000480: 6419 0b92 dc7c e1bf cbc8 c95b 7565 d5bf
00000490: 0ea4 0662 7c6c cc3f 079c 9073 958f ca3f
000004a0: b64e 1895 a8bf c73f 3de9 58d3 5d3e e3bf
000004b0: 5257 6ab9 df91 c53f 94be 3b35 96ad a3bf
000004c0: ea0e 7dee 4f68 dbbf 229b 6dfd 5947 bdbf
000004d0: a6d5 b86a 0aea e0bf ff6b 9d16 1d6f e73f
000004e0: f858 0a81 7bd1 bd3f 21fc d838 d8bb cabf
000004f0: 7444 5246 3701 c83f fe5f 235e 3346 e23f
00000500: a7a2 91c7 eff0 d83f 8c31 236d 03f7 b4bf
00000510: 4f4c f213 9608 d33f 9ef3 7978 ff8b d2bf
00000520: abe0 73b8 f2f8 c2bf 3f72 2fe9 c0e3 cabf
00000530: 8f14 3e32 fb81 d33f d68b 0563 ae56 cebf
00000540: 80b3 ff60 9081 d13f 8bd2 e9bd 3975 a23f
00000550: 8a2e 1bdc b383 ba3f 9880 971e c2ad c53f
00000560: 2ca2 1c56 2c11 ac3f d30e b817 f6c2 cdbf
00000570: 4f8a f593 16b0 903f e502 ed17 ae12 b33f
00000580: a4bf 314c e4d0 a53f 8143 3fc4 2789 c93f
00000590: cf5f 809f eba0 93bf c353 7a9d 8ed2 babf
000005a0: 3a89 14c5 c031 73bf ef74 e174 a7f1 c83f
000005b0: 93ad 876d c42d e13f 3125 acc9 98d2 d0bf
000005c0: 1741 fdae b2dd ccbf 1b22 f588 48c4 e0bf
000005d0: c48f ac3b 039f d0bf a962 5792 a701 d2bf
000005e0: d6f8 8d88 153b dc3f 573c 0805 4dc8 b5bf
000005f0: d57e 048f fbc1 e33f 1c1d ed23 cfbf 7c3f
00000600: b9bc 476c 9d1d b1bf b999 c5c3 aa29 dfbf
00000610: be24 76c9 9f33 dbbf b1c3 6b16 0fce d03f
00000620: b64c e3bc 04d2 d33f 08f7 bb90 a618 c53f
00000630: 3c04 011b d833 ccbf 6d6e abc6 5ea8 dcbf
00000640: 784f 7497 d6ee c33f 434c e275 9eb3 a3bf
00000650: 4089 ebe6 3929 a3bf 7b98 4f6c 7e2b e6bf
00000660: 7f58 2e1f e4df c83f e9e1 1c7c 3467 de3f
00000670: b131 5b9d 5d70 cfbf c5d7 8459 e384 e8bf
00000680: 0471 4ca2 80eb e53f 7899 bb2d 037e dc3f
00000690: 1062 80b8 1e69 a13f e277 3273 d48c b13f
000006a0: a58f 1365 981c cdbf e179 3d32 406b da3f
000006b0: a799 849f 2050 d33f c1a9 7cc3 883b d1bf
000006c0: 9b02 eeeb e4cd 713f 3cda 0a8a 8d87 73bf
000006d0: 6ef4 f74b 676c b9bf cbcb fbe0 6cdb e93f
000006e0: e3bc 5ce4 710e 763f 4843 a8d0 8408 db3f
000006f0: 38a2 46e0 e132 e6bf 4504 cd48 e771 b8bf
00000700: 4056 0868 4d29 e23f 9fc5 509e 69ea e6bf
00000710: eb3f 8150 9f3c 80bf 787e 21b1 0ce3 c03f
00000720: 4ad5 4dc0 b203 d33f 2a79 5069 73d9 ba3f
00000730: 6520 9c51 2111 e9bf 6d5a 2a5c 47a0 d63f
00000740: 6c96 68ec d053 ca3f e49b 5399 7e82 c8bf
00000750: 1267 e2e1 c780 ce3f f6b8 c21d 92f1 e03f
00000760: cb30 536f bd71 ca3f c350 c964 f3c2 cabf
00000770: 0683 ba8d 8901 d03f ba00 404c 9479 db3f
00000780: 9641 0561 3698 d2bf a866 9ae1 857f f03f
00000790: 52e7 8d7d da2e b0bf faca 4159 3808 d53f
000007a0: 809d 895b 15b1 c63f ec44 ce0a 9fda a63f
000007b0: ea7a 506f 743f d6bf 3234 689a 9b58 d43f
000007c0: 3f8c 93ec 7cba dabf ec2b f4de 923c dbbf
000007d0: 0769 9fef 7fb4 d43f 85e8 ed14 e704 b9bf
000007e0: b5ea 21cb d164 dabf 92e1 d852 3abe b3bf
000007f0: bb47 232e 560e d03f 42e0 b6e2 f537 d2bf

b3 f8 [10]
-0.137710606980506 0.05653541284015439 0.03134489222160877 -0.07216717485531866 -0.0038021057628950714 0.0750678025412175 -0.03767092468508621 0.0438063958973892
-0.0016492227957462375 0.04624553157918239
00000000: 1d94 a54c 80a0 c1bf 8fbb 6daa 35f2 ac3f
00000010: b416 fa0d 700c a03f a92a d947 8c79 b2bf
00000020: ebca 0afd 9725 6fbf 52a9 e5bc a437 b33f
00000030: 09a7 107b 9a49 a3bf ce46 78bb ca6d a63f
00000040: bbd6 2d7e 5705 5bbf 8afc 6f8b 7ead a73f
